dqn_lunarlander_v1.pth (torch, 75480 bytes, 6 tensors)

net.0.weight f4 [128, 8]
0	0xbea0838d	-0.31350365
1	0x3e9ea40d	0.30984536
2	0xbdae539f	-0.08512043
3	0x3f2c00be	0.6718863
4	0x3f118cb7	0.5685534
5	0x3fd31ab2	1.6492522
6	0xbe9e3ab0	-0.3090415
7	0xbd871234	-0.06595269
8	0xbe2c4d9c	-0.1682648
9	0xbca022e4	-0.019547887
10	0xbf6a0b7d	-0.9142378
11	0xbf5c810c	-0.8613441
12	0xbe9fbae7	-0.31197283
13	0x3e5cdd72	0.2156885
14	0xbda43784	-0.08018401
15	0x3e2ddb49	0.16978182
16	0xbcc7da22	-0.024396006
17	0x3e7d5527	0.24739514
18	0xbf3609bc	-0.71108603
19	0xbf32edfb	-0.6989438
20	0xbf2ab80f	-0.666871
21	0xbea6a7a0	-0.32549763
22	0xbeafdc21	-0.34347633
23	0xbf1336d6	-0.5750555
24	0xbedfb631	-0.4369369
25	0xbdd1b536	-0.10239641
26	0xbea91006	-0.33020037
27	0xbde2e5ae	-0.11078964
28	0xbf39ebec	-0.72625613
29	0x3f8fe669	1.1242191
30	0xbc42a98c	-0.011881243
31	0xbff9fb11	-1.9529744
32	0xbe302a61	-0.17203666
33	0xbeef1ebd	-0.4670314
34	0x3f53f229	0.8279138
35	0x3d9354bd	0.07193897
36	0x3fb2ae77	1.3959492
37	0x3e64f156	0.22357687
38	0xbe043385	-0.12910278
39	0x3eb6ae32	0.35679775
40	0xbf1c479c	-0.6104677
41	0x3dcb77c0	0.0993495
42	0xbf832cdb	-1.0248064
43	0xbef83248	-0.48475862
44	0xbf8abbb2	-1.083853
45	0x3f00fbeb	0.50384396
46	0xbf4614b8	-0.77375364
47	0xbefbb1fd	-0.49159232
48	0x3f474dec	0.77853274
49	0xbeda6daf	-0.42661807
50	0xbf40b1b0	-0.7527113
51	0xbf4b25d2	-0.79354584
52	0x3e02f1fa	0.12787619
53	0x3df6506e	0.120270595
54	0xbedf094f	-0.4356179
55	0xbf043469	-0.5164247
56	0xbfa61f90	-1.2978382
57	0xbe7016cd	-0.23446198
58	0xbef2abc2	-0.47396666
59	0x401c8f09	2.4462302
60	0xbe1e18d7	-0.15439163
61	0xbe77218c	-0.24133891
62	0xbf713774	-0.9422524
63	0x3efea10e	0.4973225
64	0x3f55b00d	0.8347176
65	0x3f11a0be	0.568859
66	0xbdbbe841	-0.09175158
67	0xbe902a01	-0.28157046
68	0xbf879b97	-1.0594357
69	0x3f066593	0.5249874
70	0x3eb89ee6	0.3605873
71	0xbddc31bc	-0.107516736
72	0x402a8484	2.664338
73	0xbd9c3ec5	-0.0762916
74	0x3f599029	0.84985596
75	0x3d31f14c	0.04344301
76	0xbebd9c2a	-0.37033206
77	0xbda841e7	-0.08215695
78	0x3d2bc449	0.04193524
79	0xbd2874ce	-0.04112702
80	0xbd9e6df2	-0.07735814
81	0x3b183b96	0.0023228875
82	0x382a9bda	4.0676307e-05
83	0xbcae392e	-0.0212675
84	0x3fee9d95	1.864184
85	0xbd7395e3	-0.059469115
86	0xbcca9b88	-0.024732366
87	0xc00e725d	-2.2257302
88	0xbe3157de	-0.17318675
89	0x3dba400a	0.09094246
90	0xbdbb7102	-0.09152414
91	0x3fccaf1c	1.5990939
92	0x3f09a2d4	0.5376408
93	0x3f569d1d	0.83833486
94	0xbfb4e868	-1.4133425
95	0xbf1a98ff	-0.60389704
96	0x3dd4efdf	0.10397314
97	0x3e41d202	0.18927768
98	0xbecd1577	-0.4005544
99	0xbf39f79f	-0.72643465
100	0x3f677184	0.90407586
101	0x3ed38778	0.41314292
102	0xbf9abc6a	-1.208875
103	0xbf151a1b	-0.5824296
104	0x3dad93bc	0.08475444
105	0x3e3b8096	0.1831077
106	0x3fb60bc1	1.4222337
107	0xbe3b3a83	-0.18284039
108	0xbec899cf	-0.39179847
109	0x3f2b6498	0.6695037
110	0xbfb78dc3	-1.4340137
111	0xbdeeb21e	-0.11655067
112	0xbd4f7e46	-0.050657533
113	0x3efaaccf	0.48959967
114	0xbea251c8	-0.3170302
115	0x3d405e57	0.04696497
116	0x3e09bc02	0.13450626
117	0x3cfeed75	0.031119088
118	0xbd8b3e8f	-0.067990415
119	0x3b284249	0.0025674275
120	0x3d5eb50a	0.05437187
121	0x3cfe42c7	0.031037701
122	0x3e7fd8ad	0.24984999
123	0xbd791c36	-0.06081792
124	0xbf197ef9	-0.5995937
125	0xbfcf314d	-1.618692
126	0xc01715b1	-2.360699
127	0xbf3c507f	-0.7356033
128	0x3e8f5a62	0.27998644
129	0xbf90acee	-1.1302774
130	0xbe114ffe	-0.14190671
131	0xbec291c1	-0.38001826
132	0xbf7f39af	-0.99697393
133	0xbfa9a26c	-1.3252692
134	0xbf31e513	-0.69490165
135	0x3f01ea4c	0.50748134
136	0x3d8be720	0.06831193
137	0xbedeb770	-0.43499327
138	0x3e899684	0.26872647
139	0xbf87ab34	-1.0599122
140	0x3debd4cc	0.11515197
141	0xbf313c89	-0.69232994
142	0xbf5a3e23	-0.85251063
143	0x3e6233b2	0.22090033
144	0xbdc8db55	-0.09807459
145	0x3f2a2996	0.66469705
146	0x3f0c6f1a	0.5485703
147	0x3dc275f8	0.09495157
148	0x3f451ab3	0.76993865
149	0xbf45315b	-0.77028435
150	0xbe9dadd8	-0.30796695
151	0x3d0319e1	0.032007102
152	0xbe720028	-0.23632872
153	0x3eaa9fe3	0.3332511
154	0x3e70b094	0.23504859
155	0xbf25631d	-0.6460436
156	0xbf28db91	-0.6596003
157	0xbd184f22	-0.037184842
158	0x3c07b651	0.008283214
159	0xbfbbb7dc	-1.4665484
160	0xbf0936be	-0.53599155
161	0x3e9b38d9	0.3031681
162	0x3db78fe0	0.08962989
163	0x3ea08d3b	0.3135775
164	0xbfe19373	-1.7623123
165	0x3e18c6ff	0.14919661
166	0xbf77898c	-0.96694255
167	0xbf9767f1	-1.1828595
168	0x3fa55577	1.2916707
169	0x3d81feb1	0.06347407
170	0xbe720357	-0.23634087
171	0xbf6fdca7	-0.93696064
172	0xbf712e7c	-0.94211555
173	0x3f2cbfeb	0.67480344
174	0x3c6fc024	0.014633212
175	0xbf88b061	-1.0678827
176	0x3ef1e5c3	0.47245607
177	0x3e591b35	0.21201785
178	0x3c107d79	0.0088189775
179	0x3ecbc70b	0.39800295
180	0x3fb92a17	1.446597
181	0x3f66f1bb	0.902126
182	0xbf44874f	-0.76768965
183	0xbedd9bf2	-0.4328304
184	0xbd87a276	-0.06622784
185	0xbfa99898	-1.3249693
186	0xbfa3ad37	-1.2787236
187	0x3ffab902	1.958771
188	0x3e8e9d05	0.2785417
189	0xbbbefecd	-0.0058287145
190	0xbbb0acdb	-0.0053916997
191	0xbf6a7840	-0.91589737
192	0xbdb631d5	-0.088962235
193	0xbeddb05e	-0.4329862
194	0xbe9eb598	-0.3099792
195	0xbf68db91	-0.9096003
196	0x3e8e32fa	0.27773267
197	0x3e5f2394	0.21790916
198	0x3f750281	0.95706946
199	0xbf273901	-0.65321356
200	0xbe97bdaa	-0.2963689
201	0x3ecb3abd	0.3969325
202	0xbf9ab3ef	-1.2086161
203	0xbee18870	-0.44049406
204	0x3f42e5d5	0.76131946
205	0x3e988a0b	0.29792818
206	0x3e3b665f	0.1830077
207	0x3d5c519e	0.053788774
208	0x3e73c343	0.23804955
209	0x3f243571	0.64144045
210	0x3f7bca19	0.9835525
211	0xbed17741	-0.40911296
212	0xbf4a821a	-0.7910477
213	0xbfa74919	-1.3069183
214	0x3f02e66c	0.51132846
215	0xbe84ecf1	-0.25962022
216	0xbf0768a1	-0.52894026
217	0xbe9f5472	-0.31119114
218	0x3f9e672c	1.2375236
219	0xbf152029	-0.582522
220	0xbe97d73f	-0.29656407
221	0x3ed4243b	0.41433892
222	0x3d973e04	0.073848754
223	0xbe94a0b1	-0.29028848
224	0xbdf76c8e	-0.12081252
225	0xbc010fd3	-0.007877308
226	0x4024173b	2.5639179
227	0x4000d4d3	2.0129898
228	0xbde53835	-0.11192361
229	0x3e9fd93e	0.3122043
230	0xbcc7eee2	-0.0244059
231	0xbc36bbc6	-0.011153167
232	0xbfae1417	-1.3599881
233	0x3f36eff3	0.71459883
234	0x3cc16349	0.023606913
235	0x3ecf3ec3	0.4047757
236	0xbf790a73	-0.9728157
237	0xbe0eb488	-0.13936055
238	0xbf844fb4	-1.0336823
239	0xbe04109b	-0.1289696
240	0x3f32fb44	0.6991465
241	0xbf9597ea	-1.1686985
242	0x4017cb2e	2.371776
243	0x3df508fd	0.11964605
244	0x3e03f8a5	0.12887819
245	0xbecfd2dc	-0.4059056
246	0x39dbcd77	0.00041924018
247	0x3e807e16	0.25096196
248	0x3f976a5b	1.1829332
249	0x3f314c87	0.69257396
250	0xbeadbe45	-0.33934227
251	0xbf03bb81	-0.51457983
252	0x3f53eaef	0.82780355
253	0xbdbb6fb8	-0.09152168
254	0xbe1e61db	-0.15467016
255	0xbcfea5c5	-0.031084904

net.0.bias f4 [128]
0	0x3f122808	0.5709233
1	0x3df7cf8c	0.12100133
2	0x3e694f8c	0.22784251
3	0x3ea213ba	0.31655675
4	0x3e28b5d9	0.1647562
5	0xbd117c3a	-0.035518862
6	0x3f143acb	0.5790221
7	0x3ef4029c	0.4765824
8	0x3dfcb53b	0.123392545
9	0xbc5cf06c	-0.013485055
10	0xbbb8be92	-0.005637952
11	0xbe5802cc	-0.21094817
12	0x3e816cb4	0.25278246
13	0xbe291fa9	-0.16515984
14	0x3e8e894a	0.27839118
15	0x3f1c8557	0.6114096
16	0x3dcd605a	0.10028143
17	0xbe05890b	-0.13040559
18	0x3efc7804	0.49310315
19	0xbe99859b	-0.29984745
20	0x3ee362b6	0.44411248
21	0x3dc18cc5	0.09450678
22	0xbf9cddb6	-1.2255161
23	0xbc3002d1	-0.010742859
24	0xbe056f59	-0.13030757
25	0x3e6e8c93	0.23295812
26	0xbda53d8b	-0.08068379
27	0x3ef5db4c	0.48018873
28	0x3b01cc5a	0.001980564
29	0x3ddb0475	0.106942095
30	0x3f0e0915	0.5548261
31	0xbda5805f	-0.080811255
32	0x3e6f187e	0.23349187
33	0x3e40a284	0.18811995
34	0xbd3f0718	-0.046637625
35	0xbed874a3	-0.42276487
36	0x3d01a740	0.031653643
37	0x3ec7ffca	0.3906234
38	0x3defbf21	0.11706377
39	0xbec05f49	-0.37572697
40	0xbee49036	-0.44641274
41	0x3c5c9d37	0.013465217
42	0xbec209fb	-0.3789824
43	0xbf38b5df	-0.72152513
44	0x3e82a5e4	0.2551719
45	0x3d574c19	0.052562807
46	0x3f2cf976	0.6756815
47	0x3de552a1	0.11197401
48	0x3eb6bc3b	0.35690483
49	0x3e3e5e80	0.18590736
50	0xbe445449	-0.19172777
51	0x3e381eb2	0.1798046
52	0xbf105e91	-0.56394297
53	0x3f2e9cd7	0.6820807
54	0x3d41eb27	0.0473434
55	0xbe7540ac	-0.23950452
56	0xbdf4c253	-0.11951127
57	0xbef7db76	-0.48409623
58	0x3ee80b3b	0.45321068
59	0x3ec50c71	0.38486055
60	0xbf37a5db	-0.7173745
61	0xbec383b3	-0.38186416
62	0x3cbd8ac8	0.023137465
63	0x3e994c20	0.2994089
64	0x3e12913d	0.14313217
65	0x3d100462	0.03516043
66	0xbe6ebbff	-0.23313902
67	0x3d7dcaa5	0.061960835
68	0xbec03c1f	-0.3754587
69	0x3fb2e332	1.3975585
70	0xbefe29e5	-0.49641338
71	0x3e0a9470	0.13533187
72	0x3e473bd6	0.1945642
73	0xbf4b39a0	-0.79384804
74	0x3d60b4ec	0.05486004
75	0x3da908c3	0.08253624
76	0x3ecd0dcd	0.40049592
77	0xbe131446	-0.14363202
78	0x3e91db90	0.28487825
79	0xbf00b3fc	-0.50274634
80	0xbf0cd277	-0.55008644
81	0xbf0b0cae	-0.5431622
82	0x3c07bcc5	0.008284752
83	0xbf13314e	-0.5749711
84	0xbf80dd89	-1.0067607
85	0xbed837b8	-0.4223001
86	0x3eae886c	0.34088457
87	0x3e293dff	0.16527556
88	0x3d450f4d	0.048110295
89	0xbdf5da17	-0.12004488
90	0x3eac1546	0.3360998
91	0x3da9404a	0.08264215
92	0xbe3acbd5	-0.18241818
93	0x3e88c57d	0.26713172
94	0xbe8704bf	-0.26370808
95	0xbefeff89	-0.49804333
96	0xbf118a35	-0.5685151
97	0x3f102282	0.56302655
98	0xbf4de5d9	-0.80428845
99	0xbe8fcaca	-0.28084403
100	0x3ec41342	0.38295943
101	0x3e97fc89	0.29684857
102	0xbd403914	-0.046929434
103	0x3eb8d338	0.36098647
104	0xbe8843dd	-0.26614276
105	0x3ed73da9	0.4203923
106	0x3e5e5def	0.2171552
107	0x39b2e90d	0.00034124442
108	0xbfe08837	-1.754157
109	0x3e954dd9	0.29160956
110	0x3eb958b2	0.36200482
111	0xbe81da78	-0.2536199
112	0x3f4b6c3b	0.7946202
113	0x3d2ca888	0.04215291
114	0x3ea91700	0.3302536
115	0x3eadbbc9	0.3393233
116	0x3cff609e	0.031174
117	0x3e2768a1	0.16348507
118	0x3cde9ea8	0.027175263
119	0xbe902ca4	-0.28159058
120	0xbd316422	-0.043308385
121	0x3e266581	0.16249658
122	0xbc7b9598	-0.01535549
123	0x3f446369	0.7671419
124	0x3f844fb7	1.0336827
125	0xbde291de	-0.11062978
126	0xbec507a1	-0.38482383
127	0x3d0c0af4	0.034190133

net.2.weight f4 [128, 128]
0	0xbd29ddfa	-0.04147146
1	0xbca9be89	-0.020720737
2	0x3dc4dc24	0.09612301
3	0xbe0caac7	-0.13737021
4	0xbe35cc7b	-0.17753784
5	0x3e876aa8	0.2644856
6	0xbe9072fc	-0.28212726
7	0xbe40c582	-0.18825343
8	0xbf7565a8	-0.9585824
9	0x3f5d163b	0.86362046
10	0xbf9fff99	-1.2499877
11	0x3ecbbb8e	0.3979153
12	0xbe86f674	-0.26359904
13	0x3ef1cbc3	0.4722577
14	0xbe003df0	-0.12523627
15	0xbd7acf6f	-0.06123298
16	0xbc6b0056	-0.014343342
17	0x3e618751	0.22024275
18	0xbe8d9aa2	-0.27657038
19	0x3f6a6266	0.91556394
20	0xbf83a592	-1.0284903
21	0xbe455fbc	-0.19274801
22	0x4047d209	3.1221945
23	0xbed6e99c	-0.41975105
24	0x3f127cb7	0.5722155
25	0x3e2f1816	0.17099032
26	0xbe85e01f	-0.26147553
27	0xbec6d52a	-0.38834506
28	0xbf1d8f70	-0.61546993
29	0xbe512654	-0.20424777
30	0xbe07215c	-0.1319632
31	0xbc0bf744	-0.008542839
32	0x3e9015b3	0.28141555
33	0xbea5da46	-0.32393092
34	0x3d0b87ad	0.034064937
35	0x3f233d43	0.6376535
36	0xbe396175	-0.18103583
37	0xbe6b0771	-0.22952057
38	0x3f225025	0.6340354
39	0x3f5703c9	0.8399015
40	0x3e6904b9	0.22755708
41	0x3e32c565	0.17458113
42	0x3e79b22a	0.2438437
43	0x4016f471	2.3586695
44	0xbf10318c	-0.563256
45	0x3cd94f8a	0.026527185
46	0xbea6f9c1	-0.32612422
47	0x3d6aec5c	0.057354316
48	0xbf70d6e4	-0.940779
49	0xbd125b7f	-0.03573179
50	0x3ea068b3	0.3132988
51	0xbe242e30	-0.16033244
52	0x3e675a0d	0.22592945
53	0x3e13dc5e	0.14439532
54	0x3ed0f057	0.40808365
55	0xbecd3fb9	-0.4008768
56	0xbde7374f	-0.11289846
57	0x3e99cc77	0.30038807
58	0x3c96062b	0.018313488
59	0xbeb3d6a0	-0.35124683
60	0x3f9c0d17	1.2191495
61	0xbf3c0e0e	-0.73458946
62	0x3eb0867d	0.34477606
63	0x3d312f49	0.043257985
64	0xbcd5772e	-0.026057806
65	0x3f1e7c96	0.61908853
66	0xbf42fb7c	-0.76164985
67	0xbeae22d6	-0.34010953
68	0x3df3511b	0.11880704
69	0xbfaf3408	-1.3687754
70	0xbe3d84b5	-0.18507655
71	0xbe6dfaf7	-0.23240267
72	0xbe6534dd	-0.22383447
73	0x3f89db87	1.077012
74	0xbd4ce1f0	-0.05002016
75	0x3de9aac6	0.114095256
76	0xbee18112	-0.44043785
77	0xbee1aeeb	-0.44078764
78	0xbf2e3350	-0.68047047
79	0x3da99390	0.082800984
80	0x3db8dfdb	0.09027072
81	0xbec6cd88	-0.38828683
82	0x3d6e0c20	0.058117032
83	0xbf87e49c	-1.0616641
84	0x3f15b4e8	0.58479166
85	0xbd4ea066	-0.050445937
86	0x3da85245	0.08218817
87	0xbeba8879	-0.36432245
88	0xbed2ad51	-0.41147855
89	0x3f102f8d	0.56322557
90	0xbe4ea056	-0.20178351
91	0x3e71391d	0.23556943
92	0xbd9cbffd	-0.07653806
93	0x3fa47d79	1.2850791
94	0xbe260841	-0.16214086
95	0x3e278905	0.16360863
96	0x3f4fa80a	0.8111578
97	0x3ddf5d7d	0.10906503
98	0xbe0d442c	-0.13795537
99	0xbf10219b	-0.5630128
100	0xbeee0b79	-0.46493128
101	0xbee5819b	-0.44825444
102	0x3f4a3f20	0.7900257
103	0x3f7c87d9	0.9864479
104	0x3e8a6ef3	0.27037773
105	0xbd058179	-0.032594178
106	0xbc87a736	-0.016559225
107	0xbf34a979	-0.70571095
108	0x407107d0	3.7661018
109	0x3c8d044d	0.017213965
110	0xbf08288b	-0.53186864
111	0x3f18751d	0.595537
112	0xbf4a4f7c	-0.79027534
113	0x3d7ebbd3	0.062190842
114	0xbe994e51	-0.29942563
115	0xbf2484ac	-0.6426494
116	0xbf2d6ed4	-0.67747235
117	0xbf80687c	-1.0031886
118	0xbe4a7116	-0.19769701
119	0xbc943637	-0.018092258
120	0xbe03b141	-0.12860586
121	0x3db9be76	0.09069531
122	0xc0158dc4	-2.3367777
123	0xbd9a7c8d	-0.075432874
124	0xbf9ade66	-1.2099121
125	0xbeac1bc4	-0.33614933
126	0x3f998746	1.1994407
127	0xbe851cdc	-0.2599858
128	0xc01da886	-2.4634109
129	0x3c0e3d56	0.008681616
130	0xbc9c13b4	-0.019052364
131	0xc055edda	-3.3426423
132	0x3ea1b9d5	0.3158709
133	0xbf128503	-0.5723421
134	0xbe4edb80	-0.2020092
135	0xbf825fb3	-1.0185455
136	0x3e947a82	0.28999716
137	0xbedf62fc	-0.43630207
138	0xbec6d159	-0.38831595
139	0xc0945f62	-4.6366434
140	0x3d59e39c	0.05319558
141	0xbdf366ac	-0.118848175
142	0xbe6c8d58	-0.23100793
143	0xbf0dd770	-0.55406857
144	0x3e85855a	0.26078302
145	0xbc733a85	-0.014845495
146	0xbe3f35b8	-0.18672836
147	0xbf0bf001	-0.5466309
148	0xbf919fe2	-1.1376917
149	0xbf3a0bba	-0.72674143
150	0xbe05e943	-0.13077264
151	0xbe0b1a83	-0.13584332
152	0xbfaff03b	-1.3745188
153	0xbe4fbe42	-0.20287421
154	0x3e00f0a5	0.12591799
155	0x3d66797f	0.05626821
156	0xbfae9c61	-1.3641473
157	0xbf43723e	-0.76346195
158	0xbdc458fe	-0.095872864
159	0xbe6e3209	-0.23261274
160	0xbca93f9a	-0.02066021
161	0xbd7127d6	-0.05887588
162	0x3e6b164f	0.22957729
163	0x3e96f8b5	0.29486623
164	0xc05a119d	-3.407325
165	0x3c7094b1	0.014683888
166	0xbf00d01b	-0.50317544
167	0xbf648886	-0.8927082
168	0x3eff2795	0.49834886
169	0xc101dc41	-8.116273
170	0x3f0c1d80	0.54732513
171	0xbf853101	-1.040558
172	0xbf36a03a	-0.71338236
173	0xbebf649d	-0.3738145
174	0x3e738487	0.23781024
175	0xc0f31408	-7.596195
176	0xbf4cdcc4	-0.8002436
177	0xbf1b978f	-0.60778135
178	0xbf07f909	-0.5311437
179	0x3db0259e	0.08600925
180	0xbedf48ce	-0.43610233
181	0xbcbc3451	-0.022974165
182	0xbdb4a8c9	-0.08821256
183	0x3e817d32	0.2529083
184	0x3ea40cf2	0.32041126
185	0xbe3de7d2	-0.18545464
186	0x3de1d9e9	0.11027891
187	0xbea3d017	-0.31994697
188	0xbc74f316	-0.014950534
189	0xbe238ea2	-0.15972379
190	0xc04c7aa3	-3.1949852
191	0xbe9daeb6	-0.30797356
192	0x3b04247c	0.0020163348
193	0xbed36b29	-0.41292694
194	0xbe1e546c	-0.15461892
195	0x3d8c77d0	0.0685879
196	0x3f12c866	0.57337034
197	0xbfb5efbc	-1.4213786
198	0xc05f2bba	-3.4870439
199	0x3af59e83	0.0018739257
200	0xbe96d9cf	-0.2946305
201	0xbd546e07	-0.051862743
202	0xbf9678c1	-1.1755601
203	0xbc70868d	-0.014680517
204	0x3e03cd76	0.12871346
205	0xbe560933	-0.20901947
206	0x3e593741	0.21212484
207	0xbe5c4e3f	-0.21514224
208	0x3cbc8c04	0.023015983
209	0xbf9cb29f	-1.2242011
210	0xbe134a05	-0.14383705
211	0xbebfec6c	-0.37485063
212	0x3f02a0b1	0.51026446
213	0xc048ca69	-3.1373541
214	0xbe7aeb8c	-0.24503917
215	0xbeb4ee68	-0.3533814
216	0xbe9e53d6	-0.30923337
217	0x3dc3ecf6	0.09566681
218	0x3f07f481	0.5310746
219	0xbe1d8416	-0.15382418
220	0xc03f3ea3	-2.988198
221	0xbff6c1e6	-1.9277923
222	0x3dd700de	0.10498212
223	0x3f2ad21b	0.66726846
224	0xbf012cbf	-0.504589
225	0xbf2e5960	-0.68105125
226	0xc0a554e2	-5.1666117
227	0xc0928dac	-4.579794
228	0x3eb00e13	0.34385738
229	0xbe3a47fb	-0.18191521
230	0xbfd83484	-1.6891026
231	0xbede9e22	-0.4348002
232	0x3f2561da	0.64602435
233	0xbf1290ac	-0.57252
234	0xbd6f8559	-0.05847678
235	0xbe214d9a	-0.15752259
236	0xbd3636c6	-0.04448583
237	0xbe331ed8	-0.17492235
238	0xbd3209bf	-0.043466326
239	0xbf0641fe	-0.52444446
240	0xbf63c552	-0.8897296
241	0x3d14435d	0.036197055
242	0xbec7c9ca	-0.3902114
243	0x3c5cfeac	0.013488453
244	0xbe7ff80e	-0.24996969
245	0xbe6e42bd	-0.23267646
246	0x3e134d84	0.14385039
247	0x3b2cf03b	0.0026388306
248	0xbe88ac27	-0.26693842
249	0xbe98da9e	-0.29854292
250	0x3d0d61bb	0.03451703
251	0xbdd2b422	-0.10288264
252	0xbf8adbac	-1.0848289
253	0x3f20bf0d	0.6279152
254	0xbf817f4e	-1.0116975
255	0x3e40def9	0.18835057

net.2.bias f4 [128]
0	0xbf12abd0	-0.57293415
1	0xbd1d926d	-0.03846972
2	0xbf1e2ba7	-0.6178536
3	0xbedec996	-0.43513173
4	0x3ee78386	0.45217532
5	0xbe780a7f	-0.24222754
6	0x3d8d5c9f	0.06902432
7	0x3f54e061	0.83154875
8	0xbde54293	-0.11194339
9	0xbeb73a40	-0.3578663
10	0x3d80dbf3	0.06291952
11	0xbdc2a989	-0.095049925
12	0xbebe830c	-0.37209356
13	0xbefbffed	-0.49218693
14	0xbebcba00	-0.36860657
15	0x3dc5ec74	0.096642405
16	0x3ed65f32	0.41869503
17	0x3e720d6b	0.23637931
18	0x3e8a7310	0.2704091
19	0xbe9aaf83	-0.3021203
20	0xbeb0d5e4	-0.34538186
21	0xbe9f12c1	-0.31068996
22	0xbe94a66a	-0.29033214
23	0xbea98458	-0.33108783
24	0xbde67059	-0.11251897
25	0x3ed907db	0.42388806
26	0xbe837d60	-0.2568159
27	0x3ec23e71	0.37938264
28	0xbe512856	-0.20425543
29	0x3e1a5d7a	0.15074721
30	0xbe4ed17e	-0.20197102
31	0xbd9d15b4	-0.07670155
32	0xbf292ed1	-0.6608706
33	0x3e12c103	0.1433144
34	0xbf52c6c6	-0.82334554
35	0x3ee3e8d7	0.4451358
36	0xbeda58dd	-0.42645922
37	0xbe6261ac	-0.22107571
38	0x3f18bf82	0.5966722
39	0xbea6f598	-0.32609248
40	0x3e6c6ac3	0.23087601
41	0xbea15af4	-0.31514704
42	0xbf3074bb	-0.68928117
43	0xbee3e4a6	-0.44510382
44	0x3dc5ce96	0.09658544
45	0x3dea7ece	0.11449967
46	0x3d63451e	0.055485837
47	0xbea67c11	-0.3251653
48	0x3c6835e5	0.014173006
49	0x3d9a4ca0	0.07534146
50	0x3e14e1fa	0.14539328
51	0xbdc34178	-0.095339715
52	0xbe88bb0d	-0.26705208
53	0xbd9c3efb	-0.076292
54	0xbe70a23b	-0.23499386
55	0xbe034c3d	-0.12822051
56	0xbf03e7c9	-0.5152555
57	0xbece7197	-0.40321037
58	0xbe7e3f9c	-0.24828953
59	0x3d83dcd3	0.06438603
60	0x3ee4272c	0.44561136
61	0xbeb6eb8d	-0.35726586
62	0xbf1460e7	-0.5796036
63	0xbeb1c376	-0.34719437
64	0xbf2c372b	-0.6727168
65	0x3ea18934	0.3154999
66	0xbda5cbc2	-0.08095504
67	0x3d9ccc4c	0.07656154
68	0xbe96789b	-0.2938889
69	0xbecbd3c1	-0.39809993
70	0x3c54aa87	0.01298011
71	0xbe89df9c	-0.26928413
72	0xbe94523e	-0.28968996
73	0xbdd1fb6e	-0.102530345
74	0xbe49180d	-0.19638081
75	0xbda75d81	-0.08172131
76	0xbd98737c	-0.07443902
77	0x3eb1554d	0.34635392
78	0x3e9d650a	0.3074115
79	0x3de8ed28	0.11373359
80	0x3e573455	0.21016057
81	0xbf27a926	-0.65492475
82	0x3d311526	0.04323306
83	0xbe9c7e36	-0.3056504
84	0xbe8e2c2f	-0.27768084
85	0xbe65f69c	-0.22457355
86	0xbd3c1319	-0.04591665
87	0xbf11fbda	-0.5702492
88	0xbe88b2b2	-0.26698834
89	0x3e4bfd9e	0.19920966
90	0x3d0968a3	0.033547055
91	0xbc1db799	-0.009626293
92	0xbe99c329	-0.30031708
93	0x3e5dffe9	0.21679653
94	0x3ecaff11	0.39647725
95	0x3e0ecc5a	0.13945141
96	0x3e1e4614	0.1545642
97	0xbf2a7177	-0.66579384
98	0xbe53b851	-0.2067578
99	0xbec070ce	-0.37586063
100	0x3e83e02f	0.25756976
101	0x3dccd898	0.100022495
102	0xbe37f5fd	-0.17964931
103	0x3e2315f8	0.15926349
104	0x3e61678c	0.22012156
105	0xbf05ac22	-0.5221578
106	0x3ef2bbdd	0.47408953
107	0xbebf744c	-0.37393415
108	0x3ef8ac0c	0.4856876
109	0xbd8ff050	-0.07028258
110	0xbdbe2d46	-0.09285979
111	0x3e7cd28e	0.24689695
112	0xbf466936	-0.7750429
113	0x3f202737	0.6255984
114	0xba5d5db3	-0.0008444443
115	0x3d794e5e	0.060865752
116	0xbf176153	-0.5913288
117	0xbef85c16	-0.48507756
118	0xbe70f813	-0.23532133
119	0xbf0ebf7f	-0.5576095
120	0xbdee4e37	-0.11636012
121	0x3e82eee3	0.2557288
122	0x3f11ac7a	0.56903803
123	0xbf06d893	-0.52674216
124	0xbe73e90d	-0.2381937
125	0xbede6130	-0.43433523
126	0x3d8b4369	0.06799967
127	0x3df528f8	0.11970705

net.4.weight f4 [4, 128]
0	0xbf372a12	-0.7154857
1	0x3fc86273	1.5655044
2	0xbf715357	-0.9426779
3	0xbf9fab04	-1.2474065
4	0x3f9a58c6	1.2058342
5	0xbf18bd40	-0.5966377
6	0x3f819beb	1.0125707
7	0x3f2c1f2c	0.67235065
8	0x3fb4707b	1.4096826
9	0xbe9cfa2d	-0.3065962
10	0x3d22ed11	0.039776865
11	0xbd960d37	-0.07326739
12	0xbfb5076f	-1.4142894
13	0xbf81be2f	-1.0136164
14	0xbeb8d583	-0.36100397
15	0x3fbe6588	1.4874735
16	0x3f32fc78	0.69916487
17	0x3f724267	0.9463257
18	0x3f31aa2a	0.69400275
19	0xbf1876d5	-0.59556323
20	0xbf9aa880	-1.2082672
21	0xbf6f2e12	-0.9342967
22	0xbf8d07df	-1.1018027
23	0xbf4bb10a	-0.79567015
24	0x3d5048d3	0.0508507
25	0x3fb55788	1.4167337
26	0xbf8b9958	-1.0906172
27	0x3f520149	0.8203321
28	0x3f7f7edf	0.99802965
29	0x3f9782bc	1.1836772
30	0xbf516c83	-0.818062
31	0x3d49068c	0.04907851
32	0xbf6b9b6c	-0.9203403
33	0x3f367c71	0.7128363
34	0x3fc441a3	1.5332531
35	0x3fa33411	1.2750264
36	0xbf8d29a0	-1.1028328
37	0xbea83641	-0.32853892
38	0x3fa33e3c	1.2753367
39	0xbfd24f22	-1.64304
40	0x3f92905f	1.1450309
41	0xbea29242	-0.3175221
42	0xbf8e8c0a	-1.1136487
43	0xbf915c5e	-1.1356313
44	0xbf3c94ad	-0.7366436
45	0x3f44d51d	0.76887685
46	0xbf87376e	-1.0563791
47	0xbf803f00	-1.0019226
48	0xbc219710	-0.009862676
49	0xbe252522	-0.16127446
50	0x3f8475a6	1.0348403
51	0xbd1e8de4	-0.038709536
52	0xbfbb2f5e	-1.462383
53	0x3fbb883d	1.4650952
54	0xbf5081d3	-0.81448096
55	0xbf9363bd	-1.1514813
56	0xbfbfca84	-1.4983678
57	0xbf9d8e9f	-1.230915
58	0xbf12bea7	-0.5732216
59	0xbda9f2af	-0.08298241
60	0xbe1300cc	-0.14355773
61	0xbdf2d66b	-0.11857303
62	0xbf6c850f	-0.9239053
63	0xbf9cf2a2	-1.2261546
64	0xbf5ecff7	-0.8703608
65	0x3f7d1d45	0.98872787
66	0x3cb3a280	0.021928072
67	0x3f8903d5	1.0704294
68	0x3fb1a6f6	1.3879077
69	0xbf30e20f	-0.6909494
70	0x3bddd99f	0.006770327
71	0xbf40268a	-0.75058806
72	0xbf986304	-1.1905217
73	0x3cea2f31	0.028586956
74	0xbf55a512	-0.83455
75	0xbf3368ea	-0.7008196
76	0xbf0c5b5d	-0.5482691
77	0xbe321c84	-0.1739369
78	0x3f748c1c	0.9552629
79	0x3fb3ff86	1.4062355
80	0x3fad2489	1.3526775
81	0xbf9d3202	-1.2280886
82	0x3f21d7a5	0.6321967
83	0xbf840d74	-1.0316606
84	0xbf5dcf25	-0.866442
85	0xbeba894e	-0.3643288
86	0x3d2d893b	0.0423672
87	0xbf8f218a	-1.118211
88	0x3fa99ffb	1.3251947
89	0xbdd72dfa	-0.10506816
90	0x3f5d5070	0.8645086
91	0x3ce17ea3	0.027526205
92	0xbe82d4c5	-0.25552955
93	0x3fddf70f	1.7341021
94	0xbf0621cd	-0.52395326
95	0xbf03c9b4	-0.5147965
96	0x3f93102e	1.1489313
97	0xbfa20404	-1.2657475
98	0xbed945c1	-0.4243603
99	0xbea93c9d	-0.33054057
100	0x3f1b17d8	0.6058326
101	0x3f3f0388	0.74614763
102	0xbf7e9506	-0.9944614
103	0x3f7dee8e	0.9919213
104	0x3f9ebdd4	1.2401681
105	0xbf54a139	-0.83058506
106	0x3f0466e1	0.5171948
107	0xbf54c332	-0.83110344
108	0x3f929040	1.1450272
109	0x3d3633a6	0.04448285
110	0xbeb91ca6	-0.3615467
111	0xbf30a7de	-0.69006145
112	0xbfa2d7ff	-1.2722167
113	0x3fa37227	1.2769212
114	0x3d61b962	0.055108435
115	0xbc42c2c7	-0.011887259
116	0xbf6f7610	-0.93539524
117	0xbf917d8b	-1.1366438
118	0x3f3b12f9	0.73075825
119	0xbf9801fb	-1.1875604
120	0xbd72231c	-0.059115514
121	0x3f885355	1.0650431
122	0x3f85546c	1.0416389
123	0xbfb49c46	-1.4110191
124	0xbf9d9ade	-1.2312887
125	0xbf7f8494	-0.99811673
126	0x3fef490e	1.869417
127	0x3f253845	0.64538985
128	0xbf6dfa0e	-0.9295968
129	0x4014beff	2.3241575
130	0xbf78d550	-0.9720049
131	0xbfbb19a8	-1.4617205
132	0x3f92c9e7	1.1467866
133	0xbf18a890	-0.59632206
134	0x3f839a08	1.0281382
135	0x3f05e8bf	0.5230827
136	0x3fbdd7a9	1.4831439
137	0x3db53302	0.088476196
138	0xbd664619	-0.056219194
139	0xbce21ed0	-0.027602583
140	0xbf58edd0	-0.84737873
141	0xbf2c55b4	-0.6731827
142	0xbec5d6a4	-0.3864032
143	0x3fa508e9	1.2893344
144	0x3f39d029	0.7258325
145	0x3fa07de0	1.2538414
146	0x3f63750f	0.8885049
147	0xbf20b1a4	-0.6277106
148	0xbf6f249c	-0.93415236
149	0xbfa54f34	-1.2914796
150	0xbf96243b	-1.1729807
151	0xbf2d2ee6	-0.67649686
152	0xbc492775	-0.012277474
153	0x3faa72dc	1.3316302
154	0xbf93897b	-1.1526331
155	0x3f2da33f	0.6782722
156	0x3f81a6c4	1.0129018
157	0x3f8998e8	1.0749788
158	0xbf65c075	-0.8974679
159	0xbbd249ae	-0.0064174747
160	0xbfb2630e	-1.3936479
161	0x3f3ec361	0.74516875
162	0x3fc538c5	1.540795
163	0x3fa7cbf2	1.3109114
164	0xbf95efb3	-1.1713775
165	0xbeabde88	-0.33568215
166	0x3f8894a0	1.0670357
167	0xbfd636ce	-1.6735475
168	0x3fe35455	1.7760111
169	0xbdfb0633	-0.12257042
170	0xbf8a9c94	-1.0829034
171	0xbf9eea26	-1.2415206
172	0xbf445b6c	-0.76702
173	0x3f69aca9	0.91279083
174	0xbf992754	-1.1965127
175	0xbf6ce694	-0.92539334
176	0x3d8384e7	0.064218335
177	0x3f0f67ec	0.5601795
178	0x3f989afb	1.1922296
179	0x3c519750	0.012792423
180	0xbfcb5913	-1.5886558
181	0x3f64987e	0.89295185
182	0xbf88cdfe	-1.0687864
183	0xbf223a0a	-0.6336981
184	0xbfa2765a	-1.2692368
185	0xbfa733d2	-1.3062689
186	0xbf0fd162	-0.5617887
187	0x3c871696	0.016490262
188	0xbed722d5	-0.42018762
189	0xbf00d879	-0.5033031
190	0xbfa6795f	-1.300579
191	0xbfad2067	-1.3525513
192	0xbf0fae50	-0.56125355
193	0x3f7f7332	0.9978515
194	0x3d51b11a	0.051194288
195	0x3f8f5ecf	1.1200808
196	0x3fb06c8c	1.3783126
197	0xbe6f9fdc	-0.23400825
198	0x3d7f7c29	0.062374268
199	0xbf0fc21e	-0.56155574
200	0xbfcb741a	-1.5894806
201	0xbc581004	-0.013187412
202	0xbf96c2a8	-1.1778154
203	0xbf1b1e24	-0.60592866
204	0xbf194a13	-0.59878653
205	0xbefafc73	-0.49020728
206	0x3f6416dc	0.8909738
207	0x3fd7c86b	1.6858038
208	0x3f937261	1.1519281
209	0xbf94bdfa	-1.1620476
210	0x3f40e167	0.75343937
211	0xbf88ae3a	-1.067817
212	0xbf46d32e	-0.77665985
213	0xbdaa87d8	-0.083266914
214	0xbdacaa6e	-0.084309444
215	0xbfa5b44a	-1.2945645
216	0x3fac230c	1.3448195
217	0x3d405bc3	0.04696251
218	0x3f5ff1f6	0.8747858
219	0x3d873604	0.066020995
220	0xbef6069e	-0.48051924
221	0x3fe703c6	1.8048027
222	0xbe5506c8	-0.20803368
223	0xbf07c7ad	-0.53039056
224	0x3f82c701	1.0216981
225	0xbfadf8ef	-1.3591594
226	0xbed7d296	-0.42152852
227	0xbeeac108	-0.45850396
228	0x3f1bd62a	0.60873663
229	0x3f762189	0.9614492
230	0xbf725673	-0.9466316
231	0x3f88ff2c	1.0702872
232	0x3f98e71c	1.1945529
233	0xbf3da308	-0.7407689
234	0x3eec11cc	0.46107328
235	0xbf9b1fd1	-1.2119085
236	0x3f8b9476	1.0904682
237	0xbd58ed1a	-0.052960493
238	0xbe81305f	-0.25232217
239	0xbf1c5388	-0.6106496
240	0xbf1b147e	-0.60578144
241	0x3f9e0a19	1.2346832
242	0x3d5b66ec	0.05356495
243	0x3d345f2e	0.044036083
244	0xbf73bca3	-0.9520971
245	0xbfad3493	-1.3531669
246	0x3f15abd4	0.58465314
247	0xbfb6be11	-1.4276754
248	0x3d109c95	0.03530558
249	0x3fa0ba3f	1.2556838
250	0x3f5c58e4	0.86073136
251	0xbfecb5fa	-1.8493035
252	0xbfd38aea	-1.6526768
253	0xbf768d11	-0.96309
254	0x3fae2f82	1.3608248
255	0x3ed8e81e	0.4236459

net.4.bias f4 [4]
0	0x3c51d08c	0.012806069
1	0xbd539ebe	-0.05166506
2	0x3ebb2d88	0.36558175
3	0x3c37f98d	0.011228931
