dqn_lunarlander_v2.pth (torch, 75510 bytes, 6 tensors)

net.0.weight f4 [128, 8]
00000000: ff24 b1bd 7074 99bd 7be5 f4be b951 05bf
00000010: 3feb 1b3f 62a6 c03f dc31 e73e b75c 3bbf
00000020: 344f 193e 58f5 62be bfe4 b5be 0058 3bbf
00000030: de06 b4be 042d 963f 1a89 bb3e 1f1c 04c0
00000040: 3d9e 633d cf3e 053f c9ba afbe 101e 88bf
00000050: 46cc 8f3e c3e4 013d fe32 65be 721b 6fbf
00000060: 0472 053f 31f4 4a3c 7936 bcbe 9421 2d3f
00000070: 5315 9abe e8c3 493f 8a53 0fbd 90fb cabf
00000080: 0c22 d5be 16ad 8ebe f895 663e a102 bdbf
00000090: d6c0 8c3c 5d1a be3e 670e 863d 48fd 6b3e
000000a0: 5f54 b03d 246c 8a3d 0083 c3bf f666 a63f
000000b0: 9a87 dc3e 2e9b 00bc a9ff e13e b469 b9be
000000c0: 9d4e 013e dbcb 4d3f deda d93d 0cc8 4bbf
000000d0: 13ac b13e 65ab 713f 6354 99be a0d8 84bf
000000e0: e6a9 a5bf c1bb 5ebe 6d6d 7e3f 0e84 9d3f
000000f0: 40c3 2abf d914 a63d 1358 ae3e 05ba 7a3f
00000100: 06cd 10bf c969 c53d e98d 013f 73a6 51bf
00000110: b643 bcbf 4309 733e 79bd a0be 9d50 12bf
00000120: 34f3 8f3e 30dd bbbd e024 493f 4b7e d4be
00000130: 6469 aabe 9963 fb3d 3cd1 1f3d fe4d 55bf
00000140: 7e6b 95be 226c 8fbf 8bff 1c3f 88d1 6bbe
00000150: aa6f 5f3f 168e 2d3c da1e e3bd 44f1 173f
00000160: b9b3 72bd 8e85 833e c5df 803e c9fc 28bf
00000170: 7ccc 113e 9fd5 a3be 6808 bf3e 5ea2 38ba
00000180: 4925 303d 6533 103f 59f6 883e 39e1 2abf
00000190: 98ef bbbe 025e 3c3f 193d 34bf 650b debf
000001a0: 3df7 0abf 877d 47be 81c2 5abf f249 c13f
000001b0: 8e29 ad3c ef3e 003c 1231 963e 7d56 01bf
000001c0: c601 fabd a739 143d b6e8 87be f8f5 c43d
000001d0: d678 72bf dcaa 03bf 3e07 12c0 cee9 953f
000001e0: 10b6 2e3e 8304 92bd 76d3 b6be c350 2f3e
000001f0: 69ab 693f 7259 3c3f a772 a13f 4eaf fe3e
00000200: 1299 d6bd da9b 973c a132 833d 28db 92bd
00000210: 00a5 abbf b8fe 79bb da1f ba3d c40c b63f
00000220: 6a6b a63e 439c 673f 26ea 16bf 402c cbbe
00000230: 1594 dabe a471 963e b476 6b3c e2a0 9bbe
00000240: 44ba 32bf e5df 053f 1a8a 873f 4d23 0dbf
00000250: cf85 a23d 6b6f adbe 4f15 acbf f0e0 87bd
00000260: 792a 38bf 5ad4 623f 0f58 283f 6a92 17be
00000270: 844b e63f cdbd 463f ccd1 0cc0 28c4 abbe
00000280: 3878 06c0 67c9 b6be 87f3 03bf ca8a 773e
00000290: a05c 96bd c5ac b93d 9f9c 113d aae0 a8bc
000002a0: 2cc8 273f 62a2 78bd f2e1 39bf 99da d7be
000002b0: 57f0 693f b729 253d 6805 db3e f119 283f
000002c0: aa77 65be 71ba 333e ee11 32be 1f3e d13e
000002d0: a264 e83d d556 753f 021d 9cbc c807 3cbf
000002e0: 4b8a 4fbd 5bc1 f53e d7eb 503f 08e8 e73e
000002f0: 8d47 36be 9467 883f 4553 6bbe d5df c4bf
00000300: bfcd 23bf 6a4d 453e 1417 96bd fc80 653e
00000310: 7398 c5bf 89c3 9bbe 506b 31bf fd55 82be
00000320: 2d3a e83f a80f a23c ea1e 773f 919f 363f
00000330: 5d7c 73be 0fa4 4e3e 20d3 1b3e 03dd 4d3e
00000340: 917d b73e f7a1 9b3d 7b25 00be 26e1 ccbe
00000350: 46db 893f 9e99 d03e 8772 cd3f e39c f4be
00000360: 9c5e 0f3f 52d9 7d3e 1693 29bf 7649 183f
00000370: 2a61 d73f ec84 933f 92da 6ebf 8d85 d4bf
00000380: a3a1 69bf b94e e73d a795 863f 5152 60be
00000390: 9383 603f 32f4 273f 76ab f1bf 7054 1a3f
000003a0: b8f4 623d 7c13 33be 9f6d 30c0 34b6 cbbe
000003b0: ab50 49bd 0206 f43d 641d 573f e732 61bf
000003c0: 5d24 bbbd 0069 ad3e e9c9 423c 14c6 da3e
000003d0: 8db9 b4bf e3cc 35bf 3550 fbbe ed63 08bf
000003e0: 79e9 96bf ebbe 823d 67ef 5d3f 47c5 07bf
000003f0: f961 85bf 0d7c bdbc e477 bfbd 2ff2 1bbe
-0.086496346 -0.07492912 -0.4783133 -0.52077824 0.6090583 1.5050776 0.45155227 -0.73188347
0.1497162 -0.22163904 -0.35526082 -0.7318115 -0.3516149 1.1732488 0.36628038 -2.0642164
0.05557083 0.52048963 -0.34322193 -1.0634174 0.28085536 0.031712305 -0.22382733 -0.93401253
0.521271 0.012387321 -0.3676031 0.6762936 -0.30094394 0.78814554 -0.03499178 -1.5858021
-0.41627538 -0.2786643 0.22518146 -1.4766427 0.017181795 0.3712949 0.06545716 0.23045838
0.086098425 0.067589074 -1.5274353 1.3000171 0.43072206 -0.007849498 0.44140366 -0.36213458
0.12627645 0.80389184 0.10637449 -0.7960212 0.34701595 0.9440215 -0.29947194 -1.0378609
-1.2942474 -0.2175131 0.9938572 1.2305925 -0.6670418 0.08109445 0.3405157 0.97940093
-0.5656284 0.096393175 0.5060716 -0.81894606 -1.4708164 0.23734002 -0.31394556 -0.57154256
0.28115237 -0.091730475 0.7857189 -0.41502604 -0.33283532 0.12274856 0.0390179 -0.8332213
-0.29183573 -1.1204875 0.6132743 -0.23029149 0.8727976 0.010592958 -0.11089869 0.5935252
-0.059253428 0.25687832 0.25170723 -0.6601072 0.14238161 -0.31998917 0.373111 -0.00070432376
0.043004308 0.5632842 0.26750448 -0.6674991 -0.36706233 0.73580945 -0.7040573 -1.7347227
-0.54283506 -0.19481479 -0.8545304 1.5100691 0.021137979 0.007827505 0.29334313 -0.50522596
-0.122073695 0.036187794 -0.26544732 0.09617227 -0.9471563 -0.51432586 -2.281692 1.1711977
0.17061639 -0.07129767 -0.35708207 0.17120652 0.91277176 0.7357398 1.2613114 0.49743122
-0.104784146 0.018506933 0.06406141 -0.07170707 -1.3409729 -0.003814621 0.090881065 1.4222646
0.32503825 0.9047281 -0.5895103 -0.39682198 -0.42691103 0.29383576 0.014371563 -0.3039618
-0.6981547 0.5229476 1.058902 -0.5513199 0.07935678 -0.33874068 -1.3444003 -0.066347
-0.7193981 0.8860527 0.65759367 -0.14801946 1.7991796 0.77633363 -2.200305 -0.33548093
-2.1010876 -0.35700533 -0.5154347 0.24174038 -0.073418856 0.09066156 0.035549756 -0.02061494
0.65539813 -0.060701735 -0.7261039 -0.42158964 0.91382354 0.040322986 0.42777562 0.65664583
-0.2240893 0.1755159 -0.17389652 0.40867707 0.11347319 0.9583562 -0.0190568 -0.73449373
-0.050668996 0.4799908 0.81609863 0.45294213 -0.17800732 1.065661 -0.22980984 -1.5380808
-0.6398582 0.19267812 -0.073286206 0.22412485 -1.5437149 -0.3042262 -0.6930437 -0.2545623
1.8142754 0.019782856 0.96531546 0.7133723 -0.2377791 0.20179771 0.15217257 0.2010384
0.35837987 0.07599252 -0.12514298 -0.40015525 1.0770042 0.407422 1.6050576 -0.47775945
0.5600374 0.24789932 -0.6624006 0.5948709 1.6826527 1.152494 -0.9330226 -1.6603256
-0.91262263 0.11294312 1.051442 -0.21906401 0.87700766 0.6560699 -1.8880451 0.6028509
0.055409163 -0.17487901 -2.7566907 -0.39787447 -0.049149197 0.119152084 0.8402922 -0.87968296
-0.09137795 0.3386917 0.011888959 0.42729247 -1.4119126 -0.7101576 -0.4908463 -0.53277475
-1.179 0.06384071 0.86693424 -0.53035396 -1.0420524 -0.023130441 -0.09349039 -0.15229104

net.0.bias f4 [128]
00000000: 9b04 06bf 0725 8fbe a4e8 603d b82f 963e
00000010: daab 97bd 1e6b d3bd 6fb4 e5be 4ea5 6e3f
00000020: 3faa 7c3d 27a2 043f 3d5e 973f f7af 823d
00000030: 8d48 a93d 7f94 b43e 2079 813e 611b b13d
00000040: c189 81bd 0fdb bbbd 80f6 883e 5edf 72bd
00000050: 7838 093e eb2a 68be 15df 133f 7e34 353e
00000060: 6de3 bebe 4022 64bf 0cfb 0ebf de3a da3e
00000070: b026 46be f42d f53c 07e0 65bf b94a d4be
00000080: f1bb 013f 781d f43d ddf9 2b3f 3011 2bbe
00000090: ff43 ec3e 215c 77be 2493 a73e 5c31 ee3e
000000a0: 9978 14bc 5fb4 303f 4bdd 253e a4d1 0bbf
000000b0: 2b93 63be 21ba 3d3c 15d6 c03e 3f9c a33e
000000c0: 10e6 f53e 500e 693e 6915 f03d 6f82 8dbe
000000d0: 24f3 b63e fdb3 1f3d 874b 2e3e 99c1 563c
000000e0: 8b1f 4bbe 51c6 283e c14d 983b 8e49 eebe
000000f0: 645e 4e3f 592a 2a3f 24a2 983e 7884 c6be
00000100: d4c5 973e 1c31 da3e 1f6d 933e 3033 5b3e
00000110: 1fb1 273d b539 ce3e 441b 9b3d f331 863f
00000120: 698b d2be 803d 133f 881f de3c c4ee 013f
00000130: 8a88 f63e a8d5 debd 4bc8 08be 64f8 c5bb
00000140: 5cfe 293e a99d 5e3e 8061 a63e 0399 e63e
00000150: 0c6a 8e3e fd00 133f 7abf 1abf 7fa4 093f
00000160: c891 acbe 9a2f c8be ce0f a83e 54fe 803e
00000170: ef5c f73e dffd 2a3e c59f b63b f1ef a43e
00000180: 465f 7b3d 3788 d2be cb42 4bbe 5408 413f
00000190: 39a2 4bbd cadc 133f 9e6a 613d 4f44 103f
000001a0: f719 14bf d34d e23d aee0 033f 1bc8 0c3f
000001b0: 0fd2 a7be 5df1 78bd e07a 8dbe eba0 ad3e
000001c0: af60 a33f 7b36 6dbe a60d 113e 2570 033e
000001d0: e59c 8bbe ff2d a0be 9549 ffbe 7a84 9d3e
000001e0: a55c 143f 6304 b1be 4da8 87be 6c64 033e
000001f0: 09a7 debe 23f5 493f b6a0 4ebe 19a4 753e
-0.5235078 -0.27957937 0.054909363 0.29333282 -0.07405825 -0.10323165 -0.44864222 0.93220985
0.061685797 0.51809925 1.1825634 0.06381219 0.08265791 0.35269544 0.25287724 0.086478
-0.063251026 -0.091726415 0.26750565 -0.05929505 0.13400447 -0.22672622 0.5776227 0.17695805
-0.37282887 -0.8911476 -0.5585182 0.42623037 -0.19350696 0.029929139 -0.89794964 -0.4146326
0.506774 0.11919683 0.67178136 -0.16705775 0.46145627 -0.24156238 0.32729447 0.46522033
-0.009061956 0.69025224 0.16197698 -0.5461676 -0.22224109 0.011580021 0.37663332 0.31955144
0.48027086 0.22759366 0.11722834 -0.27638575 0.35732377 0.03899001 0.17020999 0.013107681
-0.19836251 0.16481902 0.004647941 -0.46540493 0.8061278 0.6647087 0.29811203 -0.3877294
0.29643118 0.42615592 0.2879419 0.21406245 0.0409404 0.40278402 0.0757356 1.0483993
-0.41121987 0.57515717 0.027114645 0.5075495 0.48151046 -0.108805954 -0.13357656 -0.0060415734
0.16600937 0.2173983 0.32496262 0.45038614 0.27815282 0.57423383 -0.6044842 0.53766626
-0.33704972 -0.39098817 0.32824558 0.25194037 0.4831309 0.16698407 0.005573245 0.3221431
0.061370157 -0.4111955 -0.19849698 0.7540333 -0.049715254 0.5775877 0.05503332 0.5635423
-0.5785212 0.1105 0.5151471 0.54992837 -0.3277745 -0.060777057 -0.2763281 0.33911833
1.276388 -0.23165314 0.14165363 0.12835748 -0.2726814 -0.31285092 -0.49860826 0.30765134
0.57953864 -0.3457366 -0.2649559 0.12831277 -0.43486813 0.78889674 -0.20178494 0.2398838

net.2.weight f4 [128, 128]
00000000: 8f6e 7d3f df2e b13e 9f72 723f 9fd0 91be
00000010: 24cd 963f e35f 16be f956 47bf 527c 7ebf
00000020: 32d6 bf3e 881d 5c3e 4611 38bf 7da7 463d
00000030: 3e9c 16bf b922 c73e 1127 a0bf e4b1 2e3f
00000040: 37cb 2fbf 34eb 83be 4968 52be 31b9 bf3d
00000050: a00a 993f df20 163f ea2e c53e bbb0 e1be
00000060: a11c 13be 4383 56bf 923e 593f 5a15 14be
00000070: 5448 ee3e 2e4f c13e 5799 e23f 785b 553e
00000080: 5552 c6be 2438 073f 0a5d 053e 435f 04be
00000090: dcd1 533d 4f57 58be 4dc9 07bf f083 f1be
000000a0: 4a50 893f 0586 b73e e85a 56bd f6d5 92be
000000b0: 2871 943c 64e4 2e3e d7f0 043f 9d13 263f
000000c0: 4263 b53e ffc8 d73e 1575 ef3e d5ab 84bd
000000d0: 968b 723a d7e8 8abe 82e4 cdbb e7a4 8ebf
000000e0: cb0b 2b3f cf4c 513e a404 38be 0baf 823f
000000f0: 9044 853d 015f 413d 7d18 90be 2fff 41bf
00000100: f984 efbf 9031 92bd 8f3f 0d3f 37a3 993d
00000110: 750a 13bf 71f3 bf3e 57ab 163f 568c 5dbf
00000120: 72cf 103f 3154 c23e c59d 183f 794f fdbe
00000130: d2b7 b6be fad6 433f 3359 7bbf fd1e bd3f
00000140: 9d24 8dbe 35b1 91bf 3c70 4dbd 2ca4 f93e
00000150: 3622 23bf 5e4c c5be f818 86bf 3ba4 643d
00000160: 4fad cebf 22d0 cd3e 21b3 133f ebb5 f93c
00000170: 3862 0c3f 1511 583f acc0 d1bf be04 51be
00000180: ca4f fb3e 319c dabe 5046 853f 045d 903c
00000190: 5927 2d3e adab c1bf 7eb8 f1be b5ec 09bf
000001a0: aa43 853e 0717 2e3f c911 ca3e 871d 0fbe
000001b0: d054 9bbf d5b3 71bf 314f 5b3f 2d15 d73d
000001c0: 2500 71bf 83e7 18bf 52a7 b4be 9ba7 21bf
000001d0: 6728 333f d3ff fd3a 7c97 3cbf 260f ec3e
000001e0: acbf 58be 68e8 e43e f494 d6be 484c 0fbd
000001f0: 649a 40bf eda8 63bf e595 233b e2bf b4bb
00000200: d5bd 463d f5ca 5e3b 3d15 56bd a092 e6bd
00000210: a620 0d3d 7e74 8d3d 67ac 3fbd 2b88 96bd
00000220: 8663 e8bc 4b2a 4f3d acd5 7cbd 09b8 343d
00000230: a170 bebd d9c2 2d3c 4d07 8bbd bc96 43bd
00000240: 79b8 6cbd d0a9 d73c 896e d1bd af26 553d
00000250: 3620 49bc 878c d2bb 67d8 923d b3ba a13c
00000260: 52d1 e13c 803e a6bc 4a85 53ba 03d9 c2bd
00000270: fc62 d1bd 2c9f 08bc d081 c83c b4f1 b3bd
00000280: c9d2 debd 87e8 c4bd dcbe 9abd da60 8f3c
00000290: ef2f 2dbd 014e 43ba cf61 9ebd d2b6 ef3c
000002a0: 39ae 89bd 0e4a a9bd c947 0e3d 843c 3cbd
000002b0: 869e 07bd 3347 88bc 4d51 283d 2b74 7dbd
000002c0: 02ea 76bd ed5d 46bd b5a3 dbbc f0d3 86bd
000002d0: 7392 f73c 3c0f 62bd fa11 963d e0dd 6fbd
000002e0: c37b 103d b704 70bd 78b6 c1bd cf25 3abd
000002f0: 3a9e a5bc 51d8 88bd c5c8 35bd 33a8 103d
00000300: 48c9 913d 112b 8f3c ced5 0f3d cd80 eebd
00000310: 54f4 c03c b908 88bc 1bc9 76bd 635c c63c
00000320: 17bc 91bd f58c 07bd 37ba 0c3d 04de d0bd
00000330: 7dd3 7d3d 6b68 60bd 3c20 813d 3069 84bd
00000340: 529e 2b3b e835 d13c 4726 92bd d8b8 05bc
00000350: 1993 abbc cd63 88bd 4b89 bbbd 600e 35bd
00000360: a1da 393b ef28 8c3d 7560 16bd 7788 90bb
00000370: 1928 b4bd 6014 3bbd 0ee9 863b d103 713d
00000380: d605 c63c 391c 8fbd 2036 333d bb8b 9bbc
00000390: 67ef 6cbd 640f 32bd 6c46 2f3d 7533 ce3c
000003a0: 6cd7 60bc 6f90 35bd 4afa 16bd d2ac 243d
000003b0: a018 463c 8935 67bc 61a9 c7bd 14a9 80ba
000003c0: 6267 9f3d a5a7 c2bc d7a4 90bd f9ab 293c
000003d0: 2a4f 37bd 2817 98bd 82d3 ba3c 6ed4 d3bb
000003e0: 3326 853c 1c2c ccbd a34d 45bd 6104 f33b
000003f0: 7e52 e2bd d178 42bd c320 643c d11f 4b3d
0.98996824 0.34606072 0.9470615 -0.28479478 1.1781354 -0.14685015 -0.77867085 -0.9940845
0.37468106 0.2149564 -0.7190136 0.048499573 -0.58832157 0.3889368 -1.2511922 0.6824019
-0.68669456 -0.25765383 -0.20547594 0.09361494 1.1956367 0.5864391 0.38512355 -0.44080147
-0.1436639 -0.8379404 0.848611 -0.1446127 0.46539557 0.37755722 1.7703046 0.20835674
-0.3873469 0.5282004 0.13023773 -0.12926964 0.05171381 -0.21127056 -0.53041536 -0.47170973
1.0727627 0.35844436 -0.05233279 -0.28678864 0.018120363 0.17079312 0.5192999 0.6487368
0.3542729 0.42145535 0.46769014 -0.06478087 0.00092523673 -0.27130768 -0.006283344 -1.1144074
0.6681487 0.20439456 -0.1797052 1.0209669 0.06507218 0.047209743 -0.28143683 -0.75780004
-1.8712455 -0.071383595 0.5517511 0.07501834 -0.5743783 0.3749042 0.58855194 -0.8654226
0.56566536 0.37954858 0.5961574 -0.49474695 -0.3568712 0.76499903 -0.9818298 1.4775082
-0.27566996 -1.1382204 -0.050155863 0.48758066 -0.63724077 -0.38534826 -1.047637 0.055820685
-1.614664 0.40197855 0.57695204 0.030482253 0.5483737 0.84401065 -1.6386924 -0.20411965
0.49084312 -0.4269729 1.0412083 0.017622478 0.16909541 -1.5130516 -0.4721107 -0.5387681
0.26028186 0.68003887 0.39466694 -0.13976108 -1.2135258 -0.94415027 0.8566771 0.10502086
-0.94140846 -0.5972826 -0.35283905 -0.6314637 0.69983524 0.001937861 -0.73668647 0.46105307
-0.21166867 0.44708562 -0.41910517 -0.034984857 -0.7523558 -0.88929635 0.002496117 -0.0055160383
0.04852088 0.0033995484 -0.05226635 -0.11258435 0.034454964 0.06906985 -0.046795275 -0.07350191
-0.028367769 0.050577443 -0.06172721 0.044120822 -0.09298826 0.010605537 -0.06788502 -0.047751173
-0.057793114 0.02632609 -0.10226161 0.052038845 -0.012275746 -0.0064254436 0.07170182 0.019742345
0.027565632 -0.020293474 -0.0008068873 -0.09514048 -0.10223958 -0.008338731 0.024475962 -0.087863356
-0.10880048 -0.096146636 -0.07555935 0.017502237 -0.04228204 -0.0007450283 -0.07733499 0.02926198
-0.067226835 -0.08266078 0.03473643 -0.04595615 -0.033110164 -0.016635513 0.04109316 -0.061878365
-0.06028176 -0.04842942 -0.02681146 -0.065833926 0.0302212 -0.05519031 0.073276475 -0.058561206
0.03527428 -0.058598246 -0.09458631 -0.045446213 -0.02021705 -0.06681884 -0.044380922 0.035316657
0.071184695 0.01747659 0.03511601 -0.116456605 0.023554005 -0.016605722 -0.060250383 0.024213975
-0.071159534 -0.03309341 0.034357276 -0.10198596 0.06196927 -0.05478708 0.06304976 -0.064653754
0.0026186896 0.0255384 -0.07136207 -0.008161746 -0.020944165 -0.066596605 -0.09157046 -0.044203162
0.0028359073 0.06843745 -0.036713082 -0.004410799 -0.087967105 -0.045673728 0.0041171378 0.05884153
0.024172705 -0.06987805 0.04375279 -0.018987527 -0.0578455 -0.04347171 0.04279177 0.025171021
-0.013723236 -0.044327196 -0.036859788 0.040203877 0.012090832 -0.014111885 -0.09749103 -0.0009816014
0.077833906 -0.02376158 -0.07062691 0.010355943 -0.04475323 -0.07426292 0.022805933 -0.0064645326
0.016253566 -0.09969351 -0.048169743 0.0074162935 -0.110508904 -0.0474785 0.013923827 0.04959089

net.2.bias f4 [128]
00000000: 2950 44be 5584 d1bd 7255 c9be 1f89 86bf
00000010: 80cb 05bd 24b7 67bd 013e 92be d8ff 1b3e
00000020: 89a8 9b3e 3776 f7bd 9a56 183d 3254 e0bb
00000030: 8823 743d 659c 94bf 66b6 f8be eb1d 8e3e
00000040: c2dd 713e 4b48 ee3e 708b 343c 8093 91bd
00000050: 95ff b9bd 5722 173f 0db3 54be f8e1 8dbc
00000060: cfce a73e 895e 31bf f1e9 32be 2085 a6be
00000070: e53c 27be ee99 e13d 2bd6 c13e 4be0 d73e
00000080: 5cac 6bbe 0264 adbb 794a 65be 61fe 30bb
00000090: ee2f 66be 3c94 2c3e 4aea 8c3d b693 ab3e
000000a0: f86b a33e 9871 91be 09c4 f2bd 6aa8 d93e
000000b0: 6b37 09be 3e3c 2a3e fec5 b63e 7c7b 12bf
000000c0: 9430 09be a351 d3be 34ca 91bd 4a5e aabe
000000d0: 2f53 f6bb fff8 4fbd 553e 3ebf 0f01 d43c
000000e0: 7e89 95be 6ed3 783e 6809 6bbe 3a65 833d
000000f0: 018b e33c 41c8 353d caa7 a8bd 1e48 ca3e
00000100: cb19 c13c fc84 27be fd05 fabd b4e1 53be
00000110: 1cde babd a4ea 04be 071b acbe 9d89 46bd
00000120: f01d de3e 5885 54be a5c3 2dbd 37f5 5cbd
00000130: e149 9cbe 812f 7fbd aeb2 193c f71e c0bd
00000140: 07be 2cbe 3411 30bf 7cb1 e2bd e686 8cbd
00000150: 0fd8 253f 453d 5c3e 39ee 0c3d 4698 78be
00000160: c9be 63bf 6ca9 54be 1dff 3dbf 73c1 11bf
00000170: ba1c bb3e c4e1 3fbe 7d51 a7be 0dca 11bd
00000180: 3b76 86bd 83b2 e2bd bf5a e43e 251c 14bf
00000190: 614e 3a3f 57fe 9b3e df95 98be 19cc ccbd
000001a0: b4a5 af3e b811 a63c 6ebe 52be 8bb7 9cbd
000001b0: 4e15 92be b3e3 f63d 5c97 a43d 5da8 d3bd
000001c0: 7aab 9ebe 65d7 babe 8672 cdbe c6c5 2dbe
000001d0: 0653 8abd e7cc bfbe cef9 c7bd 5c08 f03e
000001e0: e9b1 dd3b ae3a 7e3e b08b 813b 4ddc 85bd
000001f0: c41a 46bd f7f4 4dbe d082 52be 1089 82be
-0.19171204 -0.102303185 -0.39323002 -1.0510596 -0.032664776 -0.05657114 -0.2856293 0.15234315
0.3040202 -0.120830946 0.037191965 -0.0068459744 0.059604198 -1.1610228 -0.4857666 0.277572
0.2361975 0.4653953 0.011019573 -0.071082115 -0.090819515 0.59036773 -0.20771427 -0.017319664
0.3277497 -0.69284874 -0.17472054 -0.3252344 -0.16331823 0.11015688 0.3785871 0.4216331
-0.23014969 -0.005291463 -0.2239169 -0.002700709 -0.22479221 0.16853422 0.068806246 0.33511132
0.3191831 -0.28406978 -0.11853797 0.42511302 -0.13400047 0.16624543 0.3569793 -0.5721967
-0.13397437 -0.4127322 -0.07118645 -0.33275062 -0.0075172405 -0.05077457 -0.7431386 0.025879411
-0.2920646 0.24299404 -0.22952807 0.06415792 0.027776243 0.04438043 -0.08235128 0.39508146
0.02357187 -0.16359323 -0.122081734 -0.20691568 -0.09124395 -0.12980133 -0.3361437 -0.048471082
0.43382215 -0.20753992 -0.04242291 -0.053944793 -0.30525115 -0.062301163 0.009380979 -0.09380906
-0.16869365 -0.6877625 -0.11069009 -0.06861667 0.64782804 0.21507747 0.034406874 -0.24276838
-0.8896299 -0.20767754 -0.74217397 -0.56935805 0.36545354 -0.18738467 -0.32679358 -0.03559308
-0.065655194 -0.11069205 0.44600484 -0.57855445 0.72775847 0.30467483 -0.29801843 -0.09999866
0.3430611 0.02027212 -0.20580456 -0.076521955 -0.2853188 0.12055149 0.08036682 -0.10334847
-0.309902 -0.36492458 -0.40126437 -0.16969976 -0.06754117 -0.37461016 -0.09764443 0.46881378
0.0067655933 0.24827072 0.0039534196 -0.0653616 -0.04836537 -0.20112978 -0.20557714 -0.25495195

net.4.weight f4 [4, 128]
00000000: 3558 d9bf e03d 7abb 4e02 02bf 6d8d 17c0
00000010: 9373 243b da74 28bd f693 e6bf 6ae1 b5bf
00000020: 8580 b3bf 28d5 56bf 1391 eebe 02f5 2fbf
00000030: 31c9 7cbd aed7 1fc0 afa6 e0bf 94ac 89bf
00000040: 7454 9bbf f34c d53f c2a8 9dbf cf5a 8abc
00000050: 5c02 adbf 1945 363f 5e6c adbf dd84 bdbd
00000060: 9cb2 7c3e 9303 febf 1cbe a5bf 3aa7 d2bf
00000070: d484 c0be 5cc6 8b3f 0e03 8e3f a688 2b40
00000080: 8dc8 b5bf 44e0 a2bd 638b b8bf 5c65 303c
00000090: 59d0 a3bf 3755 d53f 0690 9ebf 59e7 59bf
000000a0: 81ba 8ebf 5a87 7bbf 29f4 cd3f bc46 0c40
000000b0: db3b f93e 17ef 0a3f 5b8c 1540 e658 d5bf
000000c0: 2637 bebf c409 c8bf d56f e7be 1289 f6bf
000000d0: 37e3 87bd 3121 c5bf abbc 11c0 8318 a43d
000000e0: 5443 a2bf 7ff9 0bbf e4b3 87bf abfe 3c3d
000000f0: 7595 353d 5b16 42bd 45d6 a6bd e57e 8f3f
00000100: 40be e8bc cb83 d3be 6bc0 c0bf 29d9 f6be
00000110: 95d2 eebe 76dd bbbf 0bd8 b6bf 7007 0d40
00000120: 3ddc 39bf 2e04 cdbf 653a 91bf 3b0a 9bb8
00000130: ef8f 9bbf 2b7a a43d c9aa 9bbf c0d3 623d
00000140: 1b98 a3be 5821 18c0 2317 133d 000e 53bd
00000150: 3585 62bf a9b0 813f 8b03 8cbf 169e c8be
00000160: 6d8e 13c0 3ed9 51bf 1abc d3bf 811a c1bf
00000170: 153f 2c3f 1def bfbf 3505 c0bf 35b6 e7be
00000180: d58f 82bf 7952 f03b 3a62 9c3f 3b16 e5bf
00000190: a888 843f b4ed e1bf 2d45 2cbf 48d2 283d
000001a0: cdc0 6abf 8007 77bd 1f73 87bf a0ff 92bc
000001b0: e8b0 cabf fa2d 153f 2123 83bf 6e12 11bc
000001c0: ce23 b23e 18d5 abbe 93c0 eabf 6256 b6bf
000001d0: cb4b cf3c 2ca7 a5bf 1077 88bf 570e 773f
000001e0: 829c 75bd 055a b6bf 81f6 9abb d04b 993b
000001f0: 9358 9fbf 89c8 d8bf 57c7 b2bf e165 b8bf
00000200: 637b d8bf cd46 193d 2646 4ebf 4ba4 bdbf
00000210: 419a a4bd 53e9 8a3a 3fe5 c7bf e670 7abf
00000220: d06a c4bf 0726 42bf 6624 d2be fda5 c3be
00000230: 20b1 f83c fd34 3ac0 36cd b8bf b324 8dbf
00000240: bcf3 b6bf e908 fb3f 3851 90bf 4143 873b
00000250: 9181 f3bf 4b61 6c3f 2ff1 9ebf 6d9b 933d
00000260: 9e65 683f 61e4 21c0 fae3 7ebf 0c7e 96bf
00000270: 1775 febe 012a 903f a8eb 6a3f 9bb9 1740
00000280: e81d c5bf 53fb 95bd 7897 debf 0208 9bbd
00000290: 6eb2 b9bf e1ce ba3f a4b9 0cc0 3329 28bf
000002a0: f7d0 9fbf 26d7 ecbf e9fd b63f 1259 1540
000002b0: 2d00 5dbc c739 ce3e 5a5b 0b40 3538 f6bf
000002c0: 6926 b5bf 6640 ddbf bfd4 f5be 88da f8bf
000002d0: 9c45 6e3d e948 c5bf ed5f 0fc0 7acd 9cbd
000002e0: 6491 97bf 5323 fcbe 5953 6ebf 3615 1d3d
000002f0: fabe 15bc d17d 0e3f 9010 1bbd 76ad 723f
00000300: 94f8 6fbd 05b3 2fbf 6028 97bf bf14 ecbd
00000310: da19 babe 0cf8 c6bf 138e ccbf cbcd 1a40
00000320: b4a5 91be 73d1 b4bf f59a c4bf d875 9e3d
00000330: ca7c a6bf c981 44bd 95f6 8fbf 9df2 063c
00000340: 31d4 4abf 124f 41c0 b5d0 873d 9f72 8e3d
00000350: c754 93bf 443a ac3f 7382 86bf ee8b 8fbe
00000360: 5c0b 2fc0 bf85 7cbf 1e93 7dbf fccc c9bf
00000370: c3cb 263f a935 efbf b088 1cc0 a692 cabe
00000380: 42b4 f2bf c9cf a0bc 4d90 803f d592 d9bf
00000390: e8f1 943f e584 cbbf 2cc5 3bbf e85c 63bc
000003a0: 1b47 68bf 4aee 513d 5a75 75bf 44bc 123d
000003b0: 7a76 10c0 a7b9 c73e 9260 60bf 5796 28bd
000003c0: 99ff 843f 5438 0bbf 99d6 f9bf d009 a3bf
000003d0: 9b56 6f3c 75a4 56bf b218 aabf 812b 7f3f
000003e0: 4146 7bbd afb2 88bf b5cd a2bc 6358 083c
000003f0: 72b2 9ebf 1857 cbbf af3a bfbf ca24 cebf
-1.6980044 -0.0038183853 -0.50784767 -2.368007 0.0025093302 -0.041127063 -1.8013904 -1.4209416
-1.4023596 -0.83919 -0.46595058 -0.6873323 -0.06171531 -2.497539 -1.7550868 -1.0755792
-1.2135148 1.6664108 -1.2317126 -0.016889004 -1.3516345 0.71199185 -1.3548696 -0.09253857
0.24677509 -1.9844841 -1.2948642 -1.6457283 -0.3760134 1.091991 1.1094682 2.6802154
-1.4201828 -0.079529315 -1.4417537 0.010766353 -1.2797958 1.666663 -1.2387702 -0.85118634
-1.1150666 -0.98253405 1.6090137 2.1918173 0.4867848 0.5427107 2.3366916 -1.6667755
-1.486058 -1.562798 -0.4520251 -1.926058 -0.06635135 -1.5400754 -2.2771404 0.08012488
-1.2676797 -0.54677576 -1.0601773 0.046141308 0.044331986 -0.0473846 -0.081463374 1.12106
-0.02841103 -0.41311488 -1.5058721 -0.48212555 -0.46645036 -1.467696 -1.4284681 2.203579
-0.7260168 -1.60169 -1.1345946 -7.3928815e-05 -1.21533 0.08031114 -1.2161494 0.05537772
-0.31951985 -2.3770351 0.035910737 -0.051527023 -0.8848451 1.0132037 -1.0938581 -0.3918311
-2.305568 -0.8197211 -1.6541779 -1.5086213 0.67283756 -1.4994847 -1.5001589 -0.452562
-1.0200144 0.0073340503 1.2217476 -1.7897409 1.0354204 -1.7650666 -0.67293054 0.041216165
-0.9170044 -0.060309887 -1.0582007 -0.017944157 -1.5835238 0.5827328 -1.0245095 -0.008854492
0.34792942 -0.33561015 -1.8340019 -1.4245112 0.025304696 -1.2941642 -1.0661335 0.96506256
-0.05996371 -1.4246222 -0.0047290926 0.004678227 -1.2448906 -1.6936198 -1.3967084 -1.4406091
-1.6912655 0.037421037 -0.8057579 -1.4815763 -0.08037234 0.00105981 -1.5616835 -0.9782852
-1.5345097 -0.75839275 -0.41043395 -0.38212577 0.030357897 -2.9094841 -1.4437625 -1.1026825
-1.4293132 1.9612094 -1.1274786 0.0041278903 -1.9023916 0.9233596 -1.2417353 0.072073795
0.90780056 -2.5295641 -0.99566615 -1.1757216 -0.49698707 1.1262819 0.9176583 2.3707035
-1.5399752 -0.07323327 -1.7389975 -0.07569887 -1.4507577 1.4594384 -2.1988306 -0.65687865
-1.2485646 -1.8503158 1.4296237 2.3335614 -0.013488811 0.40278456 2.1774507 -1.9235903
-1.4152347 -1.7285278 -0.48013875 -1.944169 0.058171853 -1.5412875 -2.2402298 -0.07656379
-1.1841245 -0.492457 -0.9309593 0.038350306 -0.009139771 0.5566073 -0.037857592 0.9479593
-0.058586672 -0.6863254 -1.1809196 -0.115273945 -0.36347848 -1.5544448 -1.5980858 2.4188106
-0.28446734 -1.4126419 -1.5359789 0.07737321 -1.3006833 -0.047975335 -1.1247126 0.008236554
-0.7923003 -3.020451 0.066316046 0.06955456 -1.1510247 1.3455281 -1.050856 -0.28036445
-2.7350683 -0.9864158 -0.9905261 -1.5765681 0.65154666 -1.8688251 -2.4458427 -0.3956501
-1.896126 -0.01963033 1.0044037 -1.6997935 1.1636324 -1.5899931 -0.73347735 -0.013877131
-0.907335 0.05125264 -0.9588219 0.035824075 -2.2572312 0.3900883 -0.87647355 -0.041159
1.0390502 -0.54382825 -1.9518615 -1.273737 0.014608051 -0.8384469 -1.3288786 0.99675757
-0.061346296 -1.067953 -0.01987348 0.008321854 -1.2398207 -1.5885954 -1.4939784 -1.6104977

net.4.bias f4 [4]
00000000: 221b af3d 974e 853e 9461 c63e 2b32 363e
0.08550097 0.26036522 0.3874632 0.17792575
